…
[34m[1mhyperparameters: [39m[22mlr0=0.0119, lrf=0.10207, momentum=0.88846, weight_decay=0.00046, warmup_epochs=3.25601, warmup_momentum=0.88537, warmup_bias_lr=0.09557, box=0.05207, cls=0.53535, cls_pw=1.12349, obj=1.10592, obj_pw=1.0, iou_t=0.2, anchor_t=4.0, fl_gamma=0.0, hsv_h=0.01468, hsv_s=0.67531, hsv_v=0.3871, degrees=0.0, translate=0.1, scale=0.52205, shear=0.0, perspective=0.0, flipud=0.0, fliplr=0.5, mosaic=0.94374, mixup=0.0, copy_paste=0.0, anchors=2.0
Overriding model.yaml nc=80 with nc=1
Overriding model.yaml anchors with anchors=2.0
                 from  n    params  module                                  arguments
  0                -1  1      8800  models.common.Conv                      [3, 80, 6, 2, 2]
  1                -1  1    115520  models.common.Conv                      [80, 160, 3, 2]
  2                -1  4    309120  models.common.C3                        [160, 160, 4]
  3                -1  1    461440  models.common.Conv                      [160, 320, 3, 2]
  4                -1  8   2259200  models.common.C3                        [320, 320, 8]
  5                -1  1   1844480  models.common.Conv                      [320, 640, 3, 2]
  6                -1 12  13125120  models.common.C3                        [640, 640, 12]
  7                -1  1   7375360  models.common.Conv                      [640, 1280, 3, 2]
  8                -1  4  19676160  models.common.C3                        [1280, 1280, 4]
  9                -1  1   4099840  models.common.SPPF                      [1280, 1280, 5]
 10                -1  1    820480  models.common.Conv                      [1280, 640, 1, 1]
 11                -1  1         0  torch.nn.modules.upsampling.Upsample    [None, 2, 'nearest']
 12           [-1, 6]  1         0  models.common.Concat                    [1]
 13                -1  4   5332480  models.common.C3                        [1280, 640, 4, False]
 14                -1  1    205440  models.common.Conv                      [640, 320, 1, 1]
 15                -1  1         0  torch.nn.modules.upsampling.Upsample    [None, 2, 'nearest']
 16           [-1, 4]  1         0  models.common.Concat                    [1]
 17                -1  4   1335040  models.common.C3                        [640, 320, 4, False]
 18                -1  1    922240  models.common.Conv                      [320, 320, 3, 2]
 19          [-1, 14]  1         0  models.common.Concat                    [1]
 20                -1  4   4922880  models.common.C3                        [640, 640, 4, False]
 21                -1  1   3687680  models.common.Conv                      [640, 640, 3, 2]
 22          [-1, 10]  1         0  models.common.Concat                    [1]
 23                -1  4  19676160  models.common.C3                        [1280, 1280, 4, False]
 24      [17, 20, 23]  1     26916  models.yolo.Detect                      [1, [[0, 1, 2, 3], [0, 1, 2, 3], [0, 1, 2, 3]], [320, 640, 1280]]
Model Summary: 567 layers, 86204356 parameters, 86204356 gradients, 204.1 GFLOPs
Transferred 738/745 items from yolov5x.pt
Scaled weight_decay = 0.000474375
[34m[1moptimizer:[39m[22m SGD with parameter groups 123 weight, 126 weight (no decay), 126 bias
…
